final/models/Intra.pt (torch, 600718 bytes, 50 tensors)

att_src f8 [1, 3, 15]
0	0xbfb31d3e12616981	-0.07466495465033597
1	0xbfe9fe91c1f631cc	-0.8123253620447541
2	0x3fdf7e34bf8780ba	0.4920780058291815
3	0x3fd7bd3d7fa69bc4	0.3709253069486602
4	0xbfd76fdfde538aa6	-0.36620327674442377
5	0xbfe8f0458e8266d7	-0.7793300422083246
6	0x3fd57e352e9a2e36	0.33582810927393625
7	0xbfc86515f701a6d5	-0.19058489380704793
8	0xbfc83ae0a9785445	-0.18929680132774443
9	0x3fd632f6f4420e66	0.3468606362659784
10	0x3fbac717becce807	0.10460041435445087
11	0xbfe9962f8d7399d4	-0.7995832216955088
12	0xbfc8b2669348a473	-0.19294435683812913
13	0xbfcd4f23cae200c9	-0.2289776554716865
14	0xbfcdd93b9e87e232	-0.23319192162286267
15	0x3fe1a265320f0290	0.5510736444194482
16	0x3fc059655ea19c2d	0.12772814865749763
17	0xbfcc21b9325899cb	-0.2197791572409201
18	0x3fcf0e00ec7535ad	0.24261485620301695
19	0x3fe10813376d1aea	0.5322357256453334
20	0xbfe6ac56039b48a3	-0.7085371084633788
21	0x3fec9c288a1606e8	0.8940622994416261
22	0xbfcca00f21d3a25b	-0.2236346163911261
23	0xbfd8d6bc58b76614	-0.3881064287539584
24	0x3fe7cfbeaff479a9	0.7441094814892512
25	0xbfe2b7806cded566	-0.5849001051307539
26	0x3fd586b1aa4ac36e	0.3363460696228263
27	0x3fce71f16a8da236	0.23785226538463328
28	0x3fceb83c38f42f42	0.23999741345357434
29	0x3fd3a578cf9bea52	0.30697460436173174
30	0xbfd9d2f01372b1b2	-0.4034996213838681
31	0xbfc1547e3fed0099	-0.13539102670074923
32	0x3fee962720d86f29	0.9558292047035809
33	0xbfa3dd99349ac694	-0.03880003707071214
34	0x3fd57e413d3ce1ce	0.33583098392730626
35	0xbfcb76616c3f2daa	-0.21455018792617625
36	0x3fe202a1c575af8f	0.5628212792048418
37	0xbfe277629177d3fb	-0.5770733681844143
38	0x3fe9c4504098d7da	0.8052140485440262
39	0xbfdfd75a90c98cd3	-0.49751915110955486
40	0xbfedda7b279a43ed	-0.9329200528610478
41	0xbfc36296a95015dd	-0.15144618289211467
42	0xbfd24e6a984d9816	-0.28603615640020175
43	0x3fe44f899933f91b	0.6347091667410355
44	0xbfd852f09cb81b44	-0.3800622492275816

att_dst f8 [1, 3, 15]
0	0xbfc4833abc5f7a80	-0.16025480459116537
1	0x3fec844ec7bf6ce2	0.8911508466075271
2	0xbfe0603302b28d34	-0.5117430737194923
3	0x3fc2b7bb7a64cad3	0.14623206592803814
4	0x3fe2c6e8538537bc	0.5867807036645369
5	0x3febe4163281808e	0.8715926157419902
6	0xbfd60003c4692160	-0.343750898177424
7	0xbfe68144af5c6916	-0.7032798218745338
8	0xbf9339604b81741f	-0.018773560150624143
9	0xbfe789fa30c0139b	-0.735592932906559
10	0x3fdbba49c2a670cb	0.43324512490086126
11	0x3fd7ab0757c47ed1	0.3698137623887137
12	0x3fdf6a0ad51ece0d	0.49084730923206693
13	0x3fb55ba0fbfb220a	0.08342939521674722
14	0x3fde17b957f775e3	0.4701979979562038
15	0xbfa9ea3de64af713	-0.050615248071592366
16	0xbfe1440f1e24be78	-0.5395579899540754
17	0x3fd1e6822f96ece6	0.27969412467400756
18	0xbfea1be2601ad22c	-0.8159038426443366
19	0xbfd081af59bd7251	-0.25791534198450444
20	0x3fc7e8d1582ad9d3	0.18679253392265469
21	0xbfb9418ffee108f0	-0.09865665409691693
22	0xbfdc24ef48a2cc19	-0.4397543153128836
23	0x3fe5485c0a63ab1a	0.665082950870189
24	0xbfc18bf03c92bb48	-0.1370830817954476
25	0xbfd47b328e819913	-0.32001937786698526
26	0xbfa4ddb59765fe1f	-0.04075400803685291
27	0xbfe1cfd18a4cacbf	-0.5566184712564776
28	0xbfe3aafe69ebfb20	-0.6146232670579117
29	0x3f7c2b0760fb4e7f	0.006876972983906548
30	0x3fd7ae566b55c9f0	0.3700157211489161
31	0x3fc496864e2d09a8	0.16084364716705335
32	0xbfd4c463a17a6f0d	-0.3244866444526771
33	0xbfc5c2bb5d0a95cb	-0.17000524561914995
34	0x3fce384f0a8de2f9	0.23609340682357763
35	0xbfcda8f9ad01671d	-0.2317192168000525
36	0xbfe435c1e4e467b6	-0.6315621824789932
37	0xbfc5543fb2ae89fd	-0.16663356995293546
38	0xbfd819c050d622c2	-0.37657173055826487
39	0xbfa60cfb02fe094c	-0.0430677834656473
40	0x3fbe0d3ad7763f17	0.11738937149334237
41	0xbfee103aca2a9b37	-0.9394811581194976
42	0x3fe19c2fd2cab599	0.5503157727268216
43	0xbfe32882da2ce979	-0.5986952077139868
44	0xbfe54461b570733a	-0.6645973724112999

bias f8 [45]
0	0x3ec926bfb1991663	2.998276056572975e-06
1	0x3eb41ef9fcfc1800	1.1993051777805207e-06
2	0x3ec83475a02f835d	2.885451296106099e-06
3	0xbe955748fef0ff6b	-3.180050489083518e-07
4	0xbed3e162dee3a490	-4.739860271587727e-06
5	0x3eb7cf80769ba570	1.419219609772402e-06
6	0x3e8a0006ee053cec	1.9371588334336425e-07
7	0x3e8e890c430fd3ff	2.2750603670377447e-07
8	0xbebdcd9ed43584e0	-1.7764094345162773e-06
9	0x3e9477db55f76dc5	3.0499980671418454e-07
10	0xbeac360c10a7c9d3	-8.40756940788309e-07
11	0xbea8a4112228601c	-7.343556414655632e-07
12	0xbe8c8a722fe219ed	-2.1264556688081275e-07
13	0xbed1014a0d250d60	-4.054316564530827e-06
14	0xbed0d3f65520f901	-4.012102481408412e-06
15	0xbea31010c89f2a96	-5.681144028488624e-07
16	0x3ece58ca403c5723	3.6176247720881676e-06
17	0xbec30f492239dad4	-2.272094450191242e-06
18	0xbeb4067abcb51d30	-1.1936015081469855e-06
19	0x3ed5a5658f7bef1c	5.160827860835827e-06
20	0x3ec9036b05b3c81c	2.9818238950147146e-06
21	0x3ece8494c673b362	3.6380165969657406e-06
22	0x3e578d2c01ac9a18	2.1933999598501635e-08
23	0xbe8886b92de13fd0	-1.8273490004711233e-07
24	0x3e625fa81422865e	3.4223605742107786e-08
25	0x3ec26d586a350d79	2.1966851179459242e-06
26	0x3e95769793281c93	3.198273531849747e-07
27	0xbec1f0369749df66	-2.138415931714839e-06
28	0xbea94f43ccef0532	-7.542857022245518e-07
29	0xbea86ac994417928	-7.27687428990995e-07
30	0xbeae55b8971d1b23	-9.040489159305582e-07
31	0xbe755405c423786e	-7.945378491548557e-08
32	0x3e75533e4b29b007	7.944244621312762e-08
33	0xbe9961405eb7bcd4	-3.7818980899626545e-07
34	0x3eb92c36c4fcd29a	1.500410480259932e-06
35	0xbe7e7a7204ba1f5d	-1.1354052381108228e-07
36	0x3e9e89d48c554ebd	4.5505761322071754e-07
37	0x3e9dd193a4758ef1	4.443326457519102e-07
38	0xbeb0c964bc92f868	-1.0005648952006499e-06
39	0xbea808e404b5c802	-7.162907506420935e-07
40	0x3e977674a9ba2067	3.4962173754054586e-07
41	0x3ecd60431564f63f	3.501894904860467e-06
42	0xbeb234967718e08d	-1.085127646750466e-06
43	0x3eb2ca646f16e8e7	1.1200067401144455e-06
44	0xbed5e393d6727907	-5.2187382159325925e-06

weight f8 [45, 5]
0	0xbfdc31be9828ad7f	-0.4405361638952953
1	0x3fd3560e12d67f41	0.3021273788417496
2	0xbfc0cfd7a52a6132	-0.131342845580329
3	0x3fd353a5241a64bf	0.3019802906579336
4	0xbf933a2d9a117bf1	-0.01877661946161519
5	0xbfdc1673abd22d75	-0.43887035159487847
6	0xbffc733ab4929afb	-1.7781321576709945
7	0x3fd46c84f9555f4a	0.3191235003373448
8	0x3fbfbf6caf738cd7	0.12401465686302814
9	0xbfd04b61b95047e5	-0.25460093590765914
10	0x3fe3c88d807486ce	0.6182315358057282
11	0x3ff3081f3b08de51	1.1894829088249887
12	0xbfca6d7604418097	-0.20646548469358514
13	0xbfdb5010bffb259b	-0.42676180599354446
14	0x3fb2e5de3653e3f1	0.07382000757560526
15	0xbfdced3027ea74b1	-0.4519768132975726
16	0x3ff08f6261761689	1.0350059325295737
17	0xbf7c5c22cd6330a6	-0.006923805185760445
18	0x3f829ed5cf78a36f	0.009092016595859424
19	0xbfb7b15f334b70fd	-0.0925502300482925
20	0x3fe2d2d8454a9921	0.5882378915164602
21	0xbfeeae7e9e2672b6	-0.9588006104346138
22	0x3fd7eb8658323c6e	0.3737502919474939
23	0xbf93970015e20bc6	-0.019130708060867162
24	0xbfc6480ae31857b1	-0.17407356346728656
25	0xbfdb41041765e71f	-0.4258432606217059
26	0xbff488199ce81cd0	-1.2832275513808789
27	0x3fd1ec41b065785f	0.28004495836456117
28	0xbf965e0f75bb772b	-0.021843186913307704
29	0xbfc47ed977eb073b	-0.1601211391007896
30	0xbfc8bce1ac50a720	-0.193264207018097
31	0x3feb65bad0dcf37e	0.856168182311748
32	0xbfa6dc769e7d8eb2	-0.04465075192163449
33	0x3fca772192761297	0.20676059390475096
34	0x3f9df5242b925f10	0.029255452308091512
35	0xbfd44e0c7392d759	-0.3172637108467505
36	0x3fc14a3ec4565d38	0.1350782831839099
37	0xbfe6bb3e0ce3e365	-0.7103567363511557
38	0x3fd09fc6f7aa58c2	0.25975202737880576
39	0x3fb7a92ca93b3f68	0.09242514735819685
40	0xbfd832406d4065da	-0.3780671183500012
41	0x3fcaa464bfea0ec2	0.20814189310850933
42	0xbfd42121646c159d	-0.31452212149482667
43	0xbfca23dfcc316f5f	-0.20421979399076925
44	0x3fa8dba0b7082799	0.048550627081637994
45	0x3fe4541fb769c130	0.6352690298354329
46	0xbfd1d1a964e750b7	-0.27842173436989576
47	0x3fbb2741d3cdb200	0.10606776638969251
48	0xbfd5f81fd6071c98	-0.3432693090548553
49	0x3fc4d8d81e563784	0.16286756020820914
50	0xbfe698ee378e3439	-0.7061682782238058
51	0x3fc52eac9b1a774f	0.16548688481719373
52	0xbfbe5bdfef882b83	-0.11858939741084211
53	0xbfae0f836a2c21b1	-0.05871210738229438
54	0x3fcb93c10fb4eada	0.21544659869126442
55	0x3fd3c42e76ce4534	0.30884896852610955
56	0xbff4c4315fcff088	-1.2978986494700013
57	0x3fdedec43b3dfdcd	0.48234658990255924
58	0x3fb97bc4f9fdeda1	0.09954482177084013
59	0x3f92da5e1240e628	0.018411130775552703
60	0x3fd4ca95751e5a54	0.32486473500595037
61	0xbfe611df3fc2a0a5	-0.6896816487615253
62	0x3fd8b255f67bdb0c	0.3858847529476612
63	0x3fd391bb42cbe15d	0.3057697441395442
64	0xbfbfa9317824a5bb	-0.12367543395216433
65	0xbfe77db6aa51e1c5	-0.7340958906707377
66	0x3fd1274c239b8a80	0.26802352406790675
67	0xbfc4a1b9fb3bef52	-0.16118550078669586
68	0x3fe515938e8a51cc	0.658883837126774
69	0xbfb53bc0b8af61ee	-0.0829430056468323
70	0x3fdff15fac851d9c	0.49910728309301944
71	0xbfe7d82df4528ce1	-0.7451391002581681
72	0x3fde5bcfea18203c	0.47435376988187605
73	0xbf9c44a91728a285	-0.027605669058319755
74	0xbfbd3e576f41868c	-0.11423250642976707
75	0xbfdac289938428e0	-0.41812362104304945
76	0x3fcacfe2e40e8075	0.20946918616846558
77	0x3f775ce130d6e2e2	0.00570381131313333
78	0x3fb050296d6e1cab	0.06372317239412222
79	0xbfbea817e80d1bb7	-0.11975240149796106
80	0xbfd4c50ee1f12ad3	-0.32452747406629817
81	0x3f8c2eaab8a7d30c	0.013760885009995082
82	0x3fd3c96f026931f3	0.309169533113873
83	0x3fe6b6be083fedb0	0.7098074113013606
84	0x3f4fb11cf347fe5a	0.000967158447167503
85	0x3fe5ec2ac3380f86	0.6850789845343435
86	0x3fc137be36d43d5d	0.13451364209366093
87	0xbf9d387153b8c848	-0.028535624251340402
88	0xbfa061d7b37652c7	-0.03199647966099444
89	0xbfbae9b51f9f42b2	-0.1051285936548634
90	0xbfb9485aa6b724af	-0.09876028604698449
91	0x3fcd7feffc52d377	0.23046684093938172
92	0xbfbf13efc52b1831	-0.12139795840911984
93	0x3fe0655ab54af247	0.5123723545908171
94	0xbfdd20855cdb9b2c	-0.45510992115161986
95	0xbfe1fd8864ca0c2f	-0.5621988266506203
96	0xbf90472cd1c470f2	-0.01589651136701859
97	0x3fcb4ef4b07ee65f	0.2133470403476165
98	0xbfcde8f1593de994	-0.23367134912025433
99	0x3f76850a1768289b	0.005497970027599798
100	0x3fcb552328b81651	0.2135356854270634
101	0x3fd080f046fff310	0.2578697865827033
102	0xbfcd9fc4ad3f6c82	-0.23143824061739698
103	0x3fe22ec9e8f5e5b5	0.5682115125666117
104	0x3fd73669fd2cca16	0.3626961681758599
105	0xbfe793c2d2997bf0	-0.7367872346184168
106	0xbf730e3818ad3452	-0.004652232290777896
107	0x3fdc93bce73392d0	0.4465172059847591
108	0xbfe7230d5026f7ba	-0.7230288091156958
109	0x3fa77620c2396bd8	0.04582311983968851
110	0x3fdb8a1d9dc1885d	0.4303049126230059
111	0x3fd5305804f614e8	0.3310756729554911
112	0xbfd73943f395b700	-0.36287020480709486
113	0x3fd90e51a737f248	0.39149895982680905
114	0xbfd7ee4056773e33	-0.3739167065041073
115	0x3fdf9b9bbe9ca216	0.493872581619628
116	0xbfce51b12d98e90d	-0.23686804510527573
117	0x3fbae724ff7bfbce	0.10508948552522598
118	0x3fae185ecbe2f089	0.05877968062256495
119	0x3fc2453daad5f86c	0.14273806420891633
120	0xbfdd77d0695c122c	-0.46043787278202575
121	0x3fbc01a6d1e3b2f3	0.10940020202879079
122	0x3fd799fb6efeb973	0.3687733253417697
123	0x3fc3566db3d916aa	0.1510750892795632
124	0xbfb299c5e0257773	-0.0726588890297231
125	0x3fb733f5ddb1a21f	0.09063660299728625
126	0x3fadf1fccaec8f61	0.058486842890743025
127	0x3fc9972e41249533	0.19992616825872175
128	0x3fdd2f6f76972543	0.4560202272519584
129	0x3fd6dcdd9ea6b8e5	0.3572305726364802
130	0xbfcc20d0dcc7d187	-0.21975146084117744
131	0xbfa515bc61954867	-0.04118145648193732
132	0x3fb44d5867b1100c	0.0793051961091466
133	0xbfd459ffcefd11a8	-0.3179931184170308
134	0x3fa851ca1e3795d4	0.04749900454389047
135	0xbfd7d5df3e995c3e	-0.3724287139243109
136	0x3fb3410b8fd3c54c	0.0752112604275414
137	0xbfc7113a59937b31	-0.18021325467904029
138	0x3fce1ce493f5f982	0.23525674080515208
139	0xbfddc3b77edc516c	-0.4650706042168824
140	0xbfb3f561bb364d13	-0.07796297855957261
141	0xbfb2f2a95f17d348	-0.07401522227867219
142	0xbfbb73e5381961fc	-0.10723717326744259
143	0x3fd8cfdbe135ca88	0.38768670075584355
144	0xbfcf869b61513282	-0.24629537822547226
145	0x3fd6377ed17a9232	0.34713716942704587
146	0x3fd282d040f5f008	0.28923422187631376
147	0x3fc34bddac4d1989	0.15075274384635076
148	0x3fb3ee5c6bfc3e11	0.07785585056648638
149	0xbfd50b87a317d1bb	-0.32882872511916234
150	0xbfe6d30928f7a508	-0.7132612037795818
151	0x3fb5c01709de84be	0.08496231070468505
152	0xbfbb5160360a43bd	-0.1067104465421513
153	0x3fd22be8dd375481	0.28393003085268026
154	0xbfc6a8b80e831f41	-0.17702389439204505
155	0x3fc56d02ecc06837	0.16738926468025436
156	0xbfe00dd8912c7f67	-0.5016901812959816
157	0x3fc3b616355993ef	0.15399434666610953
158	0xbf964373ec9bf45b	-0.021741687122802094
159	0xbfbaec5df7093c4c	-0.10516917496828276
160	0x3fe467c911f56144	0.6376691199066404
161	0x3f946459308d42ae	0.019914048755995388
162	0xbfa09ea85dde309c	-0.03246046205376382
163	0xbfd65fead6d5549b	-0.34960432987038254
164	0xbfc003f57713b06c	-0.12512081445982248
165	0xbfc07d231d5535a6	-0.1288188832499319
166	0x3fbe8d16cd6bc5f3	0.1193403483882987
167	0xbfbb3a4986d6c451	-0.10635814229932918
168	0x3fb71be90debd3d2	0.09026962842820233
169	0xbfd0fa271cf31d5b	-0.26526811434856307
170	0x3fd54bacf7614540	0.33274387510489944
171	0xbfca88a4c64acb26	-0.2072950332854699
172	0x3fb2a22d0d0b98a1	0.07278710907448495
173	0xbfc9f21a60fdc8b3	-0.20270089851289227
174	0xbfd9d548c792ac07	-0.4036428402857272
175	0x3f9879ddbf43a45f	0.023902382658807727
176	0x3faa38da68c09512	0.05121500519480028
177	0x3fc04d6888c16b36	0.1273623149635001
178	0xbf73b42ce6131a04	-0.0048105005127525614
179	0xbfba68ddbbc961e8	-0.10316263041148199
180	0x3fd7657be54b6ea5	0.36556908981376984
181	0x3fcff2f01f958121	0.24960137884318903
182	0xbf5425002b833d06	-0.001229524770724856
183	0xbfd49b92c5ded7fa	-0.32199544261254653
184	0xbfb2fbac45ab3bfb	-0.07415272427463997
185	0xbfd70d959bfb17c1	-0.36020412666800544
186	0xbfc2c0e184a19a52	-0.14651125885139266
187	0x3fbd2f87f3a0511e	0.11400651643663592
188	0xbfb95d0fbe67da1c	-0.09907625578475926
189	0x3fe90c4e412ba3ec	0.7827521584377997
190	0x3fe6b74be0e4e9c0	0.7098750488724406
191	0x3fc24ce1fdf858b5	0.1429712762916943
192	0xbfd47ab68defb396	-0.3199898134324085
193	0xbfd91cdae715f60e	-0.3923861748406531
194	0x3fba12ef65612248	0.1018514273174641
195	0xbfe1e6e283d87536	-0.5594341826542066
196	0xbfd3313d5c45b078	-0.29988035212478037
197	0x3fcba7ffb7a4415c	0.2160644194305047
198	0xbfce02fb8a4a07e8	-0.2344660210838463
199	0x3fdea9b5be67dd8e	0.47910827249821686
200	0xbfd7b1291963af09	-0.37018802146370483
201	0xbfb3a4fc281dc8cf	-0.0767362211170479
202	0x3fcdc6b61c0730f1	0.23262668961104496
203	0x3f9af0194679d7f5	0.026306528975020133
204	0x3fad6429d65c26d1	0.057404811303127475
205	0x3fd9f5e38aff43ca	0.4056328637498693
206	0xbf9079e023af3353	-0.016089918306352157
207	0x3fb4e607d9b043eb	0.08163498940145046
208	0xbfd56950486ac3ff	-0.3345528323362145
209	0x3fa488d01c96b053	0.04010629986746097
210	0xbfda0042ae2df736	-0.4062658978435708
211	0x3fdd514dcac55813	0.4580873947319343
212	0xbfbfe22af8770a46	-0.12454479757347156
213	0x3fd7b072342a0ec0	0.3701444157997962
214	0xbfb16d2eb91a6f5f	-0.06807224291918378
215	0x3fe6c5b472a4ec29	0.7116338957924927
216	0xbfa1f2441797bff0	-0.035051467781045065
217	0xbf93a8dbecdaa479	-0.01919883378164797
218	0xbf6a826d6b918c86	-0.0032360207665518862
219	0xbfb6cf4eb98e7320	-0.08910076170145631
220	0x3faa576ae885d057	0.05144819343959799
221	0x3fb1479a1d64f947	0.06749880998265666
222	0x3f95115bf0e37615	0.020574032380741587
223	0xbfbf47bffc4aa331	-0.12218856725179418
224	0x3fe22941db82a14b	0.5675362860975296

weight f8 [15, 45]
0	0x3fc734643c9e7956	0.18128636321939479
1	0xbfd6862649e977e5	-0.35193783967940667
2	0x3fdb35988e472830	0.4251462354119466
3	0x3fda379548ee8a1e	0.4096425258850632
4	0xbfd19ef5cdc425e4	-0.27532715887409
5	0xbfcac908cba09c08	-0.2092600816988297
6	0x3fd2302e335d7c5b	0.2841907025921892
7	0x3faedb4f8289b3bd	0.06026695698242388
8	0x3fd1c39fae01958c	0.2775649260787183
9	0xbfd2350c330774c5	-0.28448777182877577
10	0x3fbd06e48924da1f	0.1133864245246987
11	0xbff0d4fb0ef845e6	-1.0519972405203304
12	0xbfd65be478510990	-0.3493586707083063
13	0x3fd7d9d110e95246	0.37266947413926166
14	0xbfdaad74d3fe3f24	-0.4168369360204329
15	0xbfbc580858ea65d4	-0.11071827097693837
16	0xbfc571f605740445	-0.16754031435269404
17	0x3fcbddfe30909858	0.21771218653992963
18	0x3fb5158e4c09abd8	0.08236016613379549
19	0xbfbc238d1cc21f6d	-0.10991746856791247
20	0x3fb17683df9193b9	0.06821464737147566
21	0xbfc8cc1b9b59a37b	-0.19372887692886906
22	0x3fdbf2d4361f1b5d	0.43669610295585476
23	0xbfbc0a79ec2a8722	-0.10953485503935359
24	0xbfcaf6f6b42e88a5	-0.21066173360765564
25	0xbfb480a4c6eb4ead	-0.08008794647622137
26	0xbfc5596d1c49f776	-0.16679157143874662
27	0xbfbb1b99ad79c437	-0.10588989720578544
28	0x3fd0a44e53b40d3b	0.2600284402289678
29	0x3fb3b0cd1376c1e8	0.07691652035897045
30	0xbfaf17c4d5ebb272	-0.0607282172330529
31	0xbfb0192e5781349d	-0.0628842319139999
32	0xbfb832378b83c102	-0.09451625019187662
33	0x3fac0bc9bd5e60d0	0.05477743565205773
34	0xbf93b1765f429687	-0.019231652797904644
35	0xbfbf6d8c8f4a652a	-0.12276533602052511
36	0xbf7e175fd6994abd	-0.007346510284679195
37	0x3fc3ae9fd02989b1	0.15376660980389326
38	0xbfc2c125a9744088	-0.14651938223005723
39	0xbf9ff319e1caf069	-0.031200794607443436
40	0xbfaeda84f2f68756	-0.06026092019898381
41	0xbf90ea1854fc4da8	-0.016518001734835558
42	0x3fd0d296bda42075	0.2628533222164216
43	0xbfc1fee6b3ffdedd	-0.14059146679914294
44	0x3fbe292f659d1f92	0.11781593542866478
45	0xbfd3ef491812c5f3	-0.31147982932006285
46	0x3fdd053256a3562b	0.45344217739816156
47	0xbfc848f8cf85ee4e	-0.1897269261643139
48	0xbfce7ca55e9ed9c2	-0.23817889328138447
49	0x3fe2cc2a5d66d3ec	0.5874225448848143
50	0x3fe032ed967f0f8f	0.5062168063527553
51	0xbfd481e8f4c8c4ef	-0.3204290762397041
52	0xbfb9d73916cbb9c2	-0.10094029242075123
53	0xbfc16984e6ba07e0	-0.13603268876982977
54	0x3fce337b3c1f02f4	0.23594608722307664
55	0xbfc50faa7d927ce3	-0.16454058772521937
56	0x3fe13c6dc76ac36f	0.5386265654434349
57	0x3fcf39185440b6ad	0.24392990220933566
58	0xbfcd15d3f828d864	-0.2272286378590166
59	0x3fd91a330c4cecfa	0.3922240848657591
60	0x3fb49d22582fab18	0.0805226769731856
61	0x3fb3e3af9a814f09	0.07769296190354792
62	0xbfcc4aab9b296683	-0.22102875782256967
63	0x3f44bd4f93990136	0.0006329191739454013
64	0xbf80fe4492551c41	-0.008297477451050141
65	0xbfb00a842183ab01	-0.06266046350689793
66	0x3fd490cb3f235cb8	0.3213375202735267
67	0xbfb9eb0e6d179c4b	-0.10124292529472816
68	0xbfe0618790557b38	-0.5119054621717174
69	0x3fa9ac0c1431849d	0.05014074083806828
70	0x3f5f904a8f83fb64	0.001926491559117693
71	0x3f61655f9e587faa	0.0021235339688842796
72	0xbfc9b77b531cfcfc	-0.20091191824210586
73	0x3fc024886f2ec52b	0.12611489704935627
74	0xbfcc5791093f3f56	-0.2214223189498578
75	0xbfd53e77a6a37971	-0.3319377066926768
76	0x3fc08fd82f90d54b	0.12938978502794848
77	0x3fd2719239be6e6d	0.2881818355469708
78	0x3fbab0bd9de7c327	0.1042593489180602
79	0x3fc71fa362897331	0.18065302192089797
80	0x3fa1c87e8198d732	0.034732774085951226
81	0x3fc693983bd7bae0	0.17637923166281322
82	0xbfc40c5cf7008773	-0.15662729321143906
83	0x3fa5231948c262ed	0.04128340733695333
84	0xbfba6edadd95d568	-0.10325401220128116
85	0xbfc636f03cb5e725	-0.1735515877187989
86	0x3fc9a703ddf01687	0.20040939652260567
87	0x3fc8ac9aa470b5cd	0.19276745824156052
88	0x3fd387dcc9fdd141	0.30516738630037216
89	0x3f66caac1f4cf2c4	0.0027821885836643873
90	0xbf4be32e4c164430	-0.0008510566769236502
91	0x3fd1707817aa8a47	0.27248956977033284
92	0xbfc2b74f00061953	-0.1462191343418434
93	0xbfc6fcacafac1c16	-0.17958601548909375
94	0x3fc1da593314c505	0.13947596544452537
95	0x3fb0b0b445c99acd	0.06519629195973238
96	0xbfc6868bb88b2a4f	-0.17598101149481457
97	0xbfc4ed3db99e18e3	-0.1634900242172029
98	0xbfd22e7a82173f1a	-0.28408682541065533
99	0x3fccc7105cf30089	0.22482494867836447
100	0x3f932cfa2fdc9361	0.018726262255899132
101	0x3fd5b7341f6c1667	0.33930686062408316
102	0x3fd0003db1cd54a8	0.2500147091244096
103	0xbfd6adf47578cb5b	-0.3543673655687393
104	0x3fdab158d6f6b811	0.41707440369180043
105	0xbfe9000a462fbf20	-0.7812548991041446
106	0x3fd4371f6c328475	0.3158644253363215
107	0x3fc8221d958aaf91	0.1885411243614468
108	0xbfc63da22d216d0c	-0.17375590518609163
109	0xbfd3bbbc7cb23cbf	-0.3083335130440438
110	0x3f82a420117ae547	0.009102106603097083
111	0xbfb5878a4257dbe0	-0.08409942741114618
112	0x3fb1ccc1ed93d1c2	0.06953060198049513
113	0x3fd7479bd0539f88	0.3637456449928256
114	0xbfb2a596c752b44b	-0.07283918730054599
115	0x3fc05bb00d04ca82	0.12779808650664753
116	0xbfbc8800841d6d09	-0.11145022607290768
117	0xbfe05c93775dd28c	-0.5113007861496768
118	0xbfa4985a48e7aa09	-0.040224858665016745
119	0x3fcfafbc6840dcd4	0.24755053606506883
120	0xbfdf59f9828164f4	-0.4898666166751149
121	0x3fd9d432638e5b0f	0.403576466772777
122	0x3f9a239ad13f12ee	0.025526446362863213
123	0xbfd46689b0e9da3d	-0.31875841404636046
124	0xbfb7fa8bb3839f76	-0.09366677410764432
125	0x3fb6adb63ca81247	0.08858813267586028
126	0xbfc01f4350f16862	-0.12595406963629602
127	0x3fced3a4a602af35	0.24083383661251792
128	0x3fc2990fd09b72e7	0.1452960747327758
129	0x3fb70989ac8a0ed6	0.08998928511033041
130	0x3fd49bf184ef285b	0.32201803190094375
131	0x3fddd56b0aa645ac	0.4661510089873342
132	0xbfd7c92767eaec8e	-0.37165246151170883
133	0x3fd100f8ef8dd375	0.2656843509096725
134	0x3fa2d135b365772a	0.036752393864601565
135	0x3fbedf26e0d4f135	0.12059252728517296
136	0x3fddd62532eb653c	0.46619539234741914
137	0xbfde7210f1af8e17	-0.4757120475971716
138	0x3fc2423c6ec345c6	0.14264636429156335
139	0xbfd3823b82552eba	-0.3048237583904939
140	0x3fd7baa7047cf92b	0.3707673591451505
141	0x3fad66f2f406d909	0.057426063812657864
142	0x3fbea1818412e89b	0.11965188478908077
143	0x3f852985631c4f2e	0.010333101355662313
144	0xbfd39ef799fbfbcc	-0.30657758748560293
145	0x3fd52c1b638d18fe	0.3308170768908808
146	0xbfbbfa969609fd3a	-0.10929242289602295
147	0xbfc60bea888a2819	-0.1722386519143704
148	0x3fe4f07e96631e1d	0.6543572365998817
149	0xbfca66f8ba795e34	-0.2062674437063251
150	0x3f796ec5a3d6ef4d	0.006209156066173294
151	0x3fc771e6bef51f9c	0.18316349338624327
152	0xbfb5e2f6853d9e3f	-0.08549443009325673
153	0xbfd1c1376d6550b9	-0.2774180000608442
154	0x3fd464f73c661302	0.3186624612647365
155	0x3fd3aa6a928bc006	0.30727638541338853
156	0x3fcd363910ddcd85	0.22821725200229195
157	0xbfd626eb2ec5d978	-0.34612540786419954
158	0x3fcbb8752751d67e	0.21656670017152985
159	0x3fcb5c3dd4993e8f	0.2137524879531054
160	0x3fda7ff7e69d2d2d	0.4140605690087849
161	0x3f951cbaf64e9020	0.020617409976367296
162	0xbfe06401930bc0ec	-0.5122077819815138
163	0xbfd86d6b645e3a72	-0.3816784362942719
164	0xbfc514551d5d75a8	-0.16468299802629116
165	0x3f4cafa8a696e359	0.0008754323472920197
166	0xbfb384434c9d658d	-0.07623692150573032
167	0xbfb9b41c3cc93207	-0.1004045151141285
168	0x3fc068a3e20a51d7	0.1281933644974191
169	0x3fa1e62dba36df11	0.03495924852489741
170	0xbfb73e820736e9bf	-0.09079754520545345
171	0xbfa8e3ea74001447	-0.04861385980624582
172	0xbf8840ae55cc5c06	-0.011842119210582435
173	0x3fabd348715539a8	0.05434633620699297
174	0xbfc70ff672f31f71	-0.18017464268472907
175	0x3fc09332aaf216c0	0.12949212405162847
176	0x3fd65d8b79feb282	0.34945952333036
177	0x3fc5454c322c8181	0.16617729616065094
178	0x3fc9a9b59bc4f488	0.20049162012029265
179	0xbfd18763e7361290	-0.27388856486531044
180	0xbfc017b1a1168326	-0.12572307935354238
181	0x3fd36f2515229e38	0.30365874351489053
182	0xbfc8da028c3b1f75	-0.19415313574995322
183	0xbfb6cf7856302bf1	-0.08910324196055776
184	0x3fe8948d3806260f	0.7681337446421724
185	0x3fd0fdb64415f799	0.2654853501224977
186	0xbfd0829f156d32d9	-0.2579724988216135
187	0xbfd29dee3e891b76	-0.29088932139386914
188	0xbfd0d2130d41bf7d	-0.26282192511188623
189	0x3fcdd3dcfe03a864	0.2330280533126966
190	0xbfd613aef6879ea7	-0.34495138240024875
191	0x3fd7912637850e9b	0.3682342092690562
192	0x3fd3f9e89eca0f05	0.3121282149006535
193	0xbfcef71f2d5b65a6	-0.2419165584058593
194	0x3fe17003c4b977b1	0.5449236719393779
195	0x3fbe2e64433e0747	0.11789538041742019
196	0xbf836e732b3a7151	-0.00948801017448689
197	0xbfb5ec204ea4bf8d	-0.08563424987801067
198	0xbfb308771f3a49c6	-0.07434792053599101
199	0x3fbde69ea402e681	0.11680022720511297
200	0xbfa502d98ef5496e	-0.04103736753553987
201	0x3f9284e958d74ffd	0.01808514218085121
202	0xbfd08cc873567d3c	-0.25859271300756226
203	0xbf73e94247920a32	-0.004861124901369739
204	0xbfaf9d13232e5d62	-0.06174526028115214
205	0x3fc40f912f0acf27	0.15672507092460217
206	0x3fb7abeebb35a7c0	0.0924672324232736
207	0xbfb8a9f9f39f91af	-0.09634363363108521
208	0x3fac5b66703e9dbd	0.055384827806217875
209	0xbfcc88eaf0feb283	-0.22292839782075555
210	0xbfc1551f034c07af	-0.13541019116388273
211	0x3fcf2b4644e32888	0.24350813258780968
212	0x3fd4b0ce7d1d1d47	0.3232914182485342
213	0x3fa30213e6563b03	0.037125226847924984
214	0x3fd59e9aa57b0dd1	0.3378054252645742
215	0xbfac3e7cfeacb542	-0.05516424759694384
216	0x3fb730826912d024	0.09058394494314875
217	0xbfcfd9c8d9a1dc0c	-0.24883375765395532
218	0x3fcb7dc71b22d746	0.2147759325504756
219	0xbfd29a41c5b2b2b4	-0.29066509539078855
220	0xbfabf4e189495b40	-0.05460266877041997
221	0x3fce35be88a8cf18	0.23601514504263643
222	0xbfbbd8534c80126d	-0.10876961343462606
223	0x3fc3500c33507511	0.15088036065655122
224	0x3fac0dbc026c498e	0.054792285247589154
225	0xbfccee6de263a7cc	-0.2260262828270342
226	0x3fcd8245fe2d79a5	0.23053812895791484
227	0xbfc22e8f00b8bd73	-0.14204585585819593
228	0x3fb7cee55976e0d6	0.093000730840575
229	0x3fe5e3c9aa84824f	0.6840561228201042
230	0x3fd2095b67230f93	0.281821108550724
231	0xbfc4fc2726f12889	-0.16394509698358586
232	0xbfdbe988a2b27ca8	-0.4361287678565966
233	0xbfd96db7c17a7b06	-0.39732164282206417
234	0x3fbb3768783eda7c	0.10631421027833626
235	0xbfdec771b6f06fe4	-0.48092310776860203
236	0x3fcbe77b03a6306c	0.2180017249887699
237	0x3fe0b49f017bfa14	0.5220484761228499
238	0x3f9b26af5bef2713	0.02651475905057683
239	0x3fe810001213c697	0.7519531586715001
240	0xbfc65cd570951ad1	-0.17470806119145846
241	0x3fc2ca0dd9fcefa5	0.1467912020106016
242	0x3fd753a49e8dfc05	0.36448016628122587
243	0xbfb4722b5ebbcf74	-0.07986708700974338
244	0x3f8c4c3e8be0000c	0.013817299502989065
245	0xbfc9b91072900a3e	-0.20096021264915181
246	0xbfb10da83a3004a4	-0.06661464138598433
247	0x3fa54fa96b2a2f72	0.041623396236075375
248	0x3fb5ad26eeb0199a	0.08467334105816918
249	0xbf9aeffcc401db13	-0.026306104148228714
250	0xbf98b1e3bf61d5a6	-0.024116095119514867
251	0x3fa0596517812461	0.03193202888412184
252	0xbf68d62780151fde	-0.0030318042269392572
253	0xbf3b9776a2a79e60	-0.0004210152279981779
254	0x3f6d531e4c1915db	0.003579672979671084
255	0xbfb4d408de109117	-0.08136039182187847

bias f8 [15]
0	0xbf9527e565ba95fb	-0.02066000398067123
1	0xbfbce57a0b559dc0	-0.11287653710097967
2	0xbf7403056e597db5	-0.004885693755198363
3	0xbf99b06851dc5ab3	-0.02508700370443746
4	0xbf8851c4e1276ab4	-0.011874712105897835
5	0x3fab9c89be96fc4c	0.05392866565261353
6	0x3fb02f57d3401459	0.06322239787557872
7	0xbfa879b79524357b	-0.047803627925627055
8	0xbfbb205fdfec2f05	-0.105962745827295
9	0xbfb63ce42a8ea0cb	-0.08686662711136532
10	0xbfb542ec12f45c0a	-0.08305240118748727
11	0x3fc0287683ef3558	0.12623483125791313
12	0x3faf968c49022d23	0.061695465004129944
13	0x3fbe7a182c3d4bd2	0.11905051307739647
14	0xbf8a189cb8ba3d51	-0.012742256534038406

weight f8 [15]
0	0x3ff23c2864c2231a	1.139686959826753
1	0x3ff22e38dac5b2e2	1.1362846895018994
2	0x3fecd780381adc40	0.9013062568473131
3	0x3ff2e3aae5603731	1.1805829010003885
4	0x3ff1a372d2373144	1.1024044238611888
5	0x3ff0d29411aa79c7	1.051410740859511
6	0x3ff0faa8388f7025	1.0611955842387115
7	0x3feba8ec0abae0db	0.8643703660555063
8	0x3ff001c1dfab7ebb	1.0004290330033843
9	0x3fef2dc2dd6bc57b	0.9743360828999096
10	0x3ff03a1e372e8f7e	1.0141889720480033
11	0x3fede9874a52ea78	0.934756894267891
12	0x3feb2dfb828d68f2	0.8493630933619711
13	0x3fea3974e8ef199a	0.8195137547962077
14	0x3febd90f74ac5caa	0.8702466276908087

bias f8 [15]
0	0xbfa648473f9a3d90	-0.04352018977544525
1	0xbf81fcaa6797dfcc	-0.008782702719130862
2	0x3fdba853b1076d01	0.432148859863176
3	0x3fb916fbca165542	0.09800695117731542
4	0x3fc2712e967a656e	0.14407904002727484
5	0x3fce2d57a43e6cce	0.23575873870581748
6	0x3fddaa0112cb1511	0.4635012324836945
7	0x3fce2c9a447cdb4b	0.2357361635601712
8	0xbfbc1c76f321e436	-0.109809336050504
9	0xbfb17e03a23b2c3b	-0.06832907400819092
10	0x3fc01909e4b28513	0.12576411883223013
11	0x3fe0e0482a7cc622	0.5273781614143369
12	0x3fc4df4a5c089de2	0.16306428426581393
13	0xbfc35db34349624e	-0.15129700456124556
14	0x3fcf9618670de459	0.24676804573008118

running_mean f8 [15]
0	0x3ff1c3c1db321eb8	1.1102922975859837
1	0xc002bf619b745d32	-2.3434478897940147
2	0x3fd83f2e8abc58ac	0.3788563113061041
3	0x3fd4c5eb67e6b68b	0.32458005091289327
4	0xc003dca373ad3779	-2.4827336346851863
5	0xc00ba9238d413a74	-3.457587340882407
6	0x3fe5a31e1df7b6cf	0.6761618218713127
7	0xc00a2ba688f7e43c	-3.2713137341166014
8	0xbfdd452e9eae3487	-0.45734754081861023
9	0xbfd6934054fd2958	-0.35273750590990494
10	0xc00858bd24fe924a	-3.043329514521507
11	0xc0017f2920a06a7d	-2.1870901631312436
12	0xc0092809f8bbce60	-3.1445502693475618
13	0xbfead575dedfd8b0	-0.8385571816459301
14	0x4006da6c72af35e0	2.856652160617827

running_var f8 [15]
0	0x3fef89b991206350	0.9855621180059675
1	0x40019b6e27eb103d	2.200893699513499
2	0x3ff08f489d868795	1.0349813607540217
3	0x3fd1c67d11461bd2	0.27773977934742533
4	0x4006b03dc4486a5a	2.836055310687965
5	0x40146182ecb884e9	5.095226000559003
6	0x3fdedec817e7e12d	0.4823475106673126
7	0x40114e946210725c	4.326737911466434
8	0x3fe2a3c8884add6c	0.582493082233595
9	0x3fd7a847275bcc9f	0.36964587062466053
10	0x400ce0763ec6752e	3.609600534850549
11	0x400b69807b5ca66f	3.426514590992887
12	0x401168c590d4ddbd	4.352316153518982
13	0x3fdbb3059332fddc	0.4328016221515705
14	0x400a01d276ee43f2	3.250889710565837

bias f8 [9]
0	0xbed318b2c0d72ca8	-4.552955045376807e-06
1	0x3e9650e4bd26398a	3.32534168334067e-07
2	0xbeb5678c0283adc5	-1.2758064347706375e-06
3	0xbe54670975426474	-1.9001297716333703e-08
4	0x3e91c951db03ead1	2.650380919313926e-07
5	0x3e8d04f4fb95b7e0	2.1621110394713348e-07
6	0xbe912dd732f0e06b	-2.5598801562136617e-07
7	0xbe9e82345d8d6ee4	-4.546137382565914e-07
8	0xbea117a3e0005bbe	-5.09391554717453e-07

weight f8 [9, 15]
0	0xbfe0f26dbaa839c5	-0.5295933385512447
1	0x3fca01a7d456a933	0.2031755244073082
2	0x3fd837176e5c3eca	0.3783625200021389
3	0xbfd672ace054de07	-0.3507492247331076
4	0x3fe1ce82a330887e	0.556458777169851
5	0x3fdcdb806e6f5cd1	0.45089731964749286
6	0x3fdec2f4df8abfb0	0.48064920263550004
7	0x3f723b4e127ec73d	0.0044510888764522335
8	0xbfe00742617f7167	-0.5008861450437906
9	0x3fbb59ede15cf315	0.1068409609988062
10	0x3fdab1506e1fb749	0.4170723987034433
11	0x3fd7b06d40c8fabb	0.3701432354609257
12	0x3fc0a46884642029	0.13001734222803066
13	0xbfc6e9f75e7bce6b	-0.17901508439500743
14	0x3fb46f6a544ce06b	0.07982506330597665
15	0x3fe030be53ff4b55	0.5059501305171162
16	0xbfe0bbaee704d491	-0.5229105484092021
17	0x3f99331e9dfaca1c	0.024609068291008382
18	0xbfdb138cdbddf4e5	-0.42306825133694154
19	0xbfe1964f9ef648e3	-0.5495985131003888
20	0xbfd397d712a304ae	-0.3061425859451202
21	0xbfd7c061d74d9121	-0.37111707711871317
22	0xbfb1f4a44fa145e5	-0.07013918823329097
23	0x3fc67abcfb0e9aed	0.17562067278523533
24	0xbfd04fdc8c041334	-0.2548743598311376
25	0x3fd269595359bcf6	0.28767998828602914
26	0xbfc142fb144ba34d	-0.13485659113873752
27	0xbfdf01172f4980bb	-0.48444156282313217
28	0xbfe40f2c53ae6d2f	-0.6268521913911281
29	0x3fe15d01533a69e3	0.5426031709242206
30	0xbfd9e099470ff1b9	-0.4043334192245101
31	0x3fc1baccada1e787	0.13851316908022346
32	0xbfd4cebe7dce6b5c	-0.3251186588838004
33	0x3fe17dd337013f8f	0.5466095041574465
34	0xbfb481b48d861fc5	-0.08010414557622798
35	0x3fbc70b0c4cdb59b	0.11109452061437823
36	0xbfc10845935f85b1	-0.13306493469194217
37	0xbfb5944ff90793ed	-0.08429431752990953
38	0x3fd391c69bec6f9e	0.30577244975006035
39	0x3f9d6bdc2930b1cd	0.028731765760470474
40	0x3fda2b559f00be6a	0.40889492538096894
41	0xbfd91c0895741145	-0.3923360309129474
42	0xbfb56d3742d3362c	-0.08369775182219347
43	0x3fd76826e3c4ed9c	0.3657319282826508
44	0xbfdfd44e7dadf9f5	-0.4973331668224142
45	0x3fe10ba362b10acf	0.5326706817216634
46	0xbfeb4674301064c8	-0.8523503245115984
47	0x3fd4264b91766bd6	0.3148373528035199
48	0xbfc3506e7b5e36fe	-0.15089207671956467
49	0xbfe3f77c612e90ee	-0.6239606760105099
50	0x3fd7b7479c05abb7	0.37056150661981796
51	0xbfd4b76efa10534d	-0.32369589252748626
52	0x3fc24f2503e67a10	0.1430403012318071
53	0x3fd3fc1ef90cac3d	0.3122632438777975
54	0xbfd80964ffd9400e	-0.37557339654176836
55	0x3fd13a8e658892dc	0.2691989890611646
56	0xbfb8fc6366132d4e	-0.09760113946974977
57	0xbfb52c0fb35f8aed	-0.0827035725520024
58	0x3fb45e8fca326a1f	0.07956789671371965
59	0xbfc393bf24c66a7e	-0.15294637008340212
60	0x3fd1af835f395195	0.27633747386178104
61	0xbfc048bdf965e269	-0.1272199123157123
62	0xbfb4f074ced1893b	-0.08179407166747847
63	0xbfe1c54061060169	-0.5553285498609003
64	0xbfd6561bfe2e9faf	-0.34900569746468596
65	0xbfcd77551c85908f	-0.2302042378679556
66	0x3fe6e7ef2ce7b013	0.7158122899104477
67	0xbfca4df97030a5bd	-0.20550458887127646
68	0xbfc785a72dd5043b	-0.1837662671842127
69	0xbfa1fc5eadb88d76	-0.03512855406395492
70	0xbfd6fb5c5216e8a6	-0.35909183517982013
71	0x3fbdecac762dfa8a	0.11689260373348467
72	0xbfc3fb1f5585c240	-0.15610114742186632
73	0xbfb8a4b3a2a786a3	-0.09626314850859301
74	0x3fd5910858fab0a7	0.33697708787327446
75	0xbfdad528a3e5de9a	-0.41926017766625423
76	0x3fa5e06cbe958ea1	0.04272785021273973
77	0x3fd0f0e3f74cb879	0.2647027888332399
78	0x3fe6d4235cbb8768	0.7133957682783434
79	0x3f785336fabbb560	0.0059387347825866355
80	0xbfd34dfd698001d0	-0.3016351251863201
81	0x3fb61ec2a22a0c3d	0.08640686472976795
82	0xbfe4f298c7b16f65	-0.6546138668304421
83	0xbfbb0117e3d065ee	-0.10548543273798547
84	0xbfc1c7d4243c2c7b	-0.13891078728952153
85	0xbfe5650f45e7a639	-0.6685863843278589
86	0x3fdc876c67caa9ad	0.4457655919638011
87	0xbfc5809904408678	-0.1679869910013172
88	0xbfa68ea21e5492ff	-0.044056955530583856
89	0x3fd8b2eacd3b3c05	0.38592023889663124
90	0x3fcc1987aa6650de	0.2195291120557447
91	0x3fc0d5f3842d6921	0.13152927354787727
92	0x3fc78a3d04d60c29	0.18390619979990788
93	0xbfc6a282a0795380	-0.1768344195903886
94	0x3fda749332c8ab26	0.4133651729522846
95	0x3fe038c90ba4ce88	0.5069318034570225
96	0xbfd57d8874ef23c5	-0.3357869283614117
97	0x3fe0cfb3b60a1e25	0.5253542476138519
98	0x3fd3c9f1a8e9657e	0.30920068259509736
99	0xbfd9e115f007f2c7	-0.40436314049274497
100	0x3fd30a490bf9c8a5	0.2975027672720308
101	0x3fe2f4d4678b3a3f	0.592386438593003
102	0x3fe7aab2cfcb1967	0.7395872171844474
103	0x3fae510d70a54eca	0.059212131500911605
104	0xbfd120eeab60f08b	-0.2676350282306507
105	0x3fc22827d00125cf	0.14185044914692788
106	0xbfaba9f0fbb3dd50	-0.05403092453519298
107	0xbfd48c7f7db623a6	-0.32107531811248646
108	0x3fe67cd8f030c6f8	0.7027401629659087
109	0x3fd638bd03ee396e	0.347213033522073
110	0x3fccb1a730efa12e	0.2241715420671055
111	0xbfd5fe631d24bcce	-0.34365156026883603
112	0x3fc8b912cb07f1a9	0.19314799226402826
113	0xbfc680a0b649cff0	-0.17580040837094613
114	0xbf9fcede20508615	-0.031062575075457916
115	0x3fc03e3dda4d6ac0	0.12689946326539392
116	0x3fa3cad5926eee83	0.038656877637063956
117	0x3f9a545aa74cb5f0	0.02571241041294131
118	0x3fccf69b484e90d5	0.22627583532915332
119	0xbfd14fd56875482a	-0.2704976577853154
120	0x3fd121b10e61a7f8	0.26768137363853794
121	0xbf8ec03f02a72699	-0.01501511790128811
122	0xbfb018b15e333408	-0.06287678289227483
123	0x3fd6b4bcc65ac9ef	0.3547813355500286
124	0x3fca94ead3b8b007	0.2076695951267313
125	0x3fda242d38e6a621	0.4084580474542197
126	0x3fccfa4a29e60164	0.22638823552916698
127	0x3fd2c7fd9ec8dff1	0.29345646387400764
128	0x3fceaddb02575b25	0.2396806489402589
129	0xbfe3e110b0e52e1b	-0.6212237792000822
130	0x3fb87d0d17e2fb51	0.09565812905473804
131	0x3fc877e07258bbca	0.19115834792452652
132	0xbfbc5d12b1a65656	-0.11079518162872523
133	0xbfdaf0ea50fcdf19	-0.4209543028732568
134	0x3fd82c267614317f	0.3776947167505326

weight f8 [9]
0	0x3ffbe2a60b305774	1.7428341328681798
1	0x3ff7b897ed89ee45	1.4825667647227345
2	0x3ff290b20fe84233	1.1603260632874821
3	0x3ff9c81fa75c11d1	1.6113583123670774
4	0x3ff4a731133787ba	1.29081828600509
5	0x3ff6979f79708e88	1.4120173209893512
6	0x3ff6179d9f7e3ea4	1.3807655554009353
7	0x3ff39f92868cf633	1.2264580970653582
8	0x3ff7015d83f92458	1.4378333239749477

bias f8 [9]
0	0x3fa81edfb8961b54	0.04711054924250982
1	0x3f703ab19b06c0f7	0.003962224742665158
2	0x3fd685526d73e022	0.35188732804044964
3	0x3fa331e54ee92b1c	0.037490049250285845
4	0x3fb3d66fd30528c4	0.07749079610690318
5	0xbf9f2537cd6f7afa	-0.030415412820611977
6	0xbf982c701f370bc5	-0.023607017426694705
7	0x3fb76c57a1510af4	0.09149692238228707
8	0xbfce3e09efcdf355	-0.23626827439502543

running_mean f8 [9]
0	0x3fefe29db9b83406	0.9964130999884453
1	0xbfd6fb2ee62ba062	-0.3590810058362931
2	0xbfdf9e93278b2846	-0.4940536390464597
3	0xbfc2aeacd1abeb7c	-0.1459556602274822
4	0x3fc52bf67439c2e7	0.16540413546638108
5	0x3fc414d8af3d04e1	0.15688618237076127
6	0x3fe5e1159065450b	0.6837261028505578
7	0xbfc060f4b6bbbafe	-0.12795885965848436
8	0x3fe13539352eed7a	0.537747005342154

running_var f8 [9]
0	0x4017c511e651fb32	5.942451094392526
1	0x401f17475cff5e6e	7.772733166777114
2	0x3ff495bc89009672	1.286556754269807
3	0x40008e951e39e101	2.0696203576482053
4	0x40109d0774368305	4.153348747088562
5	0x40074dcbff5322b7	2.9129867503400777
6	0x4023d555983c729c	9.916668660525197
7	0x3ff1ef88dc7bb0a3	1.1209801304458231
8	0x3fe974c8608221d5	0.795505703442411

weight f8 [100, 9]
0	0xbfd3091ad689bfa8	-0.2974307150934643
1	0xbfdd3bd3231f2580	-0.4567764132485408
2	0x3fdd2f8dd14ebf38	0.45602746429630114
3	0xbf769247ad9f6763	-0.005510597222348898
4	0xbfde760830a4e06e	-0.47595410108943426
5	0xbfd843fdf70b950b	-0.3791499054480744
6	0x3fcd48a362b8c833	0.22877924271011948
7	0x3fb483893913bc3d	0.08013208049281757
8	0xbfd2cbbbc576a07b	-0.29368490489515126
9	0xbf9cc1465dd60dbf	-0.028081035115531835
10	0x3fe4ec3086405384	0.6538317319960787
11	0xbfe19945f824b9a3	-0.5499601217796236
12	0x3fe6a304e12d4358	0.7073997877106235
13	0xbfe1e499db2e1a64	-0.5591553955899369
14	0xbfb4c6a00af65176	-0.0811557795298706
15	0x3fd06ad2e988ed1a	0.25652001196040575
16	0x3fde7e2773700a69	0.4764498355217826
17	0x3fe285407ed18306	0.5787661053583129
18	0xbfcc51c498d172e2	-0.2212453600103777
19	0x3fd75df7e4eeb543	0.36511037213024994
20	0xbfe61acdb6c8f369	-0.6907719202059585
21	0x3fddfd0342990c9f	0.46856767181106734
22	0x3fbeefc4bab2ef8a	0.12084607656555427
23	0x3fa445407cb17486	0.03959085008748624
24	0x3fd5e7bf49e3ff39	0.34226972785835447
25	0xbfcae7e3a314fd07	-0.21020169699657051
26	0x3fe063824cd06757	0.512147092845434
27	0xbf77c5b0d431a08c	-0.005803766954251565
28	0x3fdb545a7ece20dc	0.42702352889365414
29	0xbfd46bc7ac761300	-0.31907836763302555
30	0x3fec47863824daf2	0.8837309929429848
31	0xbfb9e4162ca50814	-0.1011365756030787
32	0xbfb0504c98e513b8	-0.0637252686766051
33	0x3fda3e68d6c7226d	0.41005917524720453
34	0x3fec261219bbbae1	0.8796473028758919
35	0x3ff905f10d9db295	1.5639505893588297
36	0x3f86923943847380	0.011021087048499245
37	0xbfba12753234b3e3	-0.10184414363602871
38	0x3fcb5b469dd16cae	0.21372301774940666
39	0xbfdf6689b564d4fd	-0.49063341821904755
40	0xbfb104d4ba659767	-0.06647996473983896
41	0x3fb5c03f23f8f5ef	0.0849647009681218
42	0x3fcf888b88b76150	0.24635452437974914
43	0xbfc21a42f9e8987f	-0.14142644121710998
44	0x3ff01e236a5f438f	1.007357993618118
45	0xbfb7947093f16d0a	-0.09210876094714507
46	0x3fdcff76c4b2dbff	0.45309228142599517
47	0xbfbe49ac03613810	-0.11831164438737596
48	0x3fddebb737a4a444	0.46751194414043007
49	0x3fc17acc4b6efc88	0.13655999835279808
50	0xbf862bb73fd778b6	-0.01082556880549777
51	0x3fe0e5f5dc238287	0.5280713367065609
52	0x3fe7305bbb034580	0.7246531155198426
53	0x3ff189f0a0240ff0	1.0961767440321601
54	0xbfb1eebcbfc32aaa	-0.07004909211824875
55	0xbfcc766c78c523a6	-0.22236400505997017
56	0xbfa5f7f77fe6f644	-0.04290746151262373
57	0x3fe78e082f34a795	0.7360878869997004
58	0xbfd068b2c08d768b	-0.256390274085654
59	0xbfe2082b644c32f3	-0.5634972533167385
60	0x3fd81c29ed1d45bd	0.3767189803666858
61	0x3fcad8f51fc80302	0.2097460179502591
62	0xbfdb372284f22c73	-0.42524016364104184
63	0xc001bd0a2f5b9cea	-2.217304582579904
64	0x3fe3cfd3ace5aac0	0.6191194893738938
65	0xbfe0392290c3f372	-0.5069744899225113
66	0x3fe00f6369f816f3	0.5018784589489925
67	0x3fe20cc43c98c70d	0.5640584167033197
68	0x3fe0195a9c396970	0.5030949641471079
69	0xbfefe9ebc662c989	-0.9973048090671891
70	0xbfd26d94c30a8858	-0.28793829962717643
71	0x3fce5886996a3696	0.2370765923591775
72	0x3fc02ed466cf78c2	0.1264291288379749
73	0xbfd1ad361fe676f4	-0.27619698634394685
74	0x3fbf0b1c49bb5fdc	0.12126328277679427
75	0xbfcab6c43029bcd0	-0.2087025866671639
76	0xbfd8bd837fdcfdac	-0.3865669964470395
77	0x3fb359f5b37fa0dd	0.07559142715729501
78	0xbfc21390e50cd5d2	-0.14122210678185226
79	0x3fd6d06deb8cbc45	0.3564715194979196
80	0x3fd1edfadcd5eb24	0.28015014234522284
81	0xbfd2fbfab825d299	-0.2966296003644771
82	0x3fdc507b5a93cd50	0.44241222234196176
83	0xbf8b86f89345f1f0	-0.013441030496999823
84	0x3fcc5d19fd66f5a0	0.22159123299745165
85	0xbfc46b1f544ec095	-0.15951911560614876
86	0x3fc4029824a9bac7	0.1563291720408044
87	0x3f92a86aa27de19d	0.01822058312197471
88	0x3fbe69390ad63b94	0.11879307283946466
89	0xbfd229945a5d9b64	-0.283787811515529
90	0x3fc54bdc8648d12d	0.1663776069341422
91	0x3fcdfec2715a324e	0.2343371442297148
92	0x3fcacb5ab7f7f00b	0.20933088286244614
93	0xbfcafd58c9fb8e76	-0.2108565317386028
94	0x3fbd55b42bc69710	0.11458898609870638
95	0xbfc30bce674d4f33	-0.14879779857675998
96	0x3fd36cc9f4e467ab	0.30351494708304
97	0x3fce0673bcb869bd	0.23457190241681572
98	0x3fe6df3f6dbbb836	0.7147519248226277
99	0x3fde75fbe21edf05	0.475951166935815
100	0xbfd95bde3c7c0f1c	-0.3962321844739891
101	0xbfbb5e5fb34fd30b	-0.10690878036241373
102	0xbfd912a906b17e1e	-0.3917639317860181
103	0x3fc736a07a183fe4	0.1813545795598649
104	0x3fb5d79fd8b63b23	0.08532141724411395
105	0xbfc3e303a5696739	-0.1553654248880834
106	0x3faa39507df7d2b3	0.05121852433868437
107	0x3fa783daca5851eb	0.04592784614593256
108	0xbfd6dfeda48fdcfb	-0.3574174983072706
109	0xbfcd2f427e8ab366	-0.2280047529106028
110	0xbfa6f894ddbabfd5	-0.04486527640017327
111	0xbf73694f73e17f4c	-0.004739103662444521
112	0xbfb7df592186b9b3	-0.09325177258026578
113	0xbfda82b586b261ae	-0.4142278495214907
114	0xbfbf298b7e4d022e	-0.12172767480388622
115	0xbf95c998f8052e17	-0.0212768460635698
116	0xbfd15bb3561317d8	-0.27122195630761103
117	0xbfa8014808bddd19	-0.046884776179405736
118	0xbfe60cba55c7b4d9	-0.689053695239319
119	0x3fb06b61b20c45a0	0.06413851353524658
120	0x3fc3917b0eec8321	0.152877218520211
121	0xbfe9602332f815da	-0.7929855342378531
122	0x3fe526371a0df21b	0.6609149464489436
123	0xbfd2c3b918e93bb6	-0.2931959861061232
124	0x3ff9f5e00a76e9e7	1.6225281151551998
125	0x3fd7d24d5164bafd	0.3722108168466745
126	0x3fd0bf371b5178e9	0.2616708533077046
127	0xbfd348097e17905d	-0.30127179444958135
128	0x3f8296cf0fd53bfc	0.00907670752590483
129	0xbfd11e9cb89651e3	-0.2674934198960541
130	0xbfcfbd9ae6e77abc	-0.24797378801937053
131	0xbfc519f89ff80306	-0.16485507784820913
132	0x3fc38f1b5531e9b3	0.1528047719946933
133	0xbfb1b153a38f6608	-0.069112040931394
134	0xbfce7fcbd7122f42	-0.23827503205790818
135	0xbffa80e4abf53ace	-1.6564680783373436
136	0x3fef3293d89e36a8	0.9749240141697628
137	0x3f9cc6dedc95823d	0.028102380956058538
138	0x3fcec4f8f1506707	0.24038612158693004
139	0x3fdd68e3a3de49cb	0.4595269298817157
140	0x3fdcfc847039057d	0.45291243514301255
141	0xbfda166bdc3d1d66	-0.40761848933876477
142	0xbfdf0e55d8eedb32	-0.48524995980135366
143	0x3fc96527994f0979	0.1983994959428619
144	0xbfc1ffacf0af6374	-0.1406150984974165
145	0xbfd0ae220495d597	-0.2606282276895739
146	0xbfe41cb2d65fea5b	-0.6285032450680988
147	0xbfe2ebc207e0859d	-0.5912790445183195
148	0x3fd2d22200535f82	0.29407548934749894
149	0xbfb04da7350d9db9	-0.06368489308589788
150	0xbfc041e5d66eebfb	-0.1270110413587132
151	0xbfccfb8d53e92e72	-0.22642675969324305
152	0x3fde79037d9fc5b9	0.47613608615855757
153	0x3f9978af520f6c34	0.024874438651618827
154	0x3fa17df619ec19f3	0.03416413370546314
155	0xbfd215359d1885d5	-0.28254452077279996
156	0x3fc6e6aba65fb5f9	0.17891450523113386
157	0xbfc01412a241e035	-0.12561257288666786
158	0x3faa38282bff6571	0.05120969330864512
159	0xbfbee0c8143e1127	-0.12061739439201756
160	0x3fc9574da50b1569	0.19797678526644383
161	0xbfc3a3e6900a0a5e	-0.1534393504444606
162	0x3fb5e4303ab39f3e	0.08551312859674184
163	0x3fce0060c9ecc86e	0.23438653812042126
164	0xbfc902e70638f9fd	-0.19540107539974363
165	0xbfcd5ec236838930	-0.22945430433089475
166	0x3fb23802ce086fa3	0.07116715936757471
167	0x3fd0bc27a5b8dec1	0.2614840620403634
168	0x3fcdfc87874f043b	0.23426908594959336
169	0xbfab5347123b719f	-0.053369732833490995
170	0x3fecbcc860473483	0.8980447655136604
171	0x3fa4098dc74f3031	0.039135389880897604
172	0x3fbe73c51d15cb48	0.1189540096291185
173	0xbfc67a941770a19c	-0.17561579842118824
174	0x3fc0392f27c4f4bd	0.12674512330878498
175	0x3fae297e8b6988fc	0.05891032649812364
176	0xbfde2d773c972fe2	-0.4715250102715328
177	0xbfd3ff164299ab52	-0.3124442720788255
178	0xbfd46085b8caff36	-0.3183912567728727
179	0xbfdf4660fd9d920a	-0.48867058531894314
180	0xbfb70eae266e6f9a	-0.09006775320307128
181	0x3fb54d75af723c79	0.0832131913505111
182	0x3fd250b9a51bf305	0.28617707370703754
183	0x3fd5b49a71bdeb63	0.3391481505165556
184	0x3fb930a97458c5b3	0.09839877214905961
185	0xbfd8915af4fbf5c7	-0.38387178348770273
186	0x3fc85e26049443ce	0.1903731844290903
187	0xbfa52ee98af9ea9d	-0.04137353726851709
188	0xbfd418b84b2e2c2e	-0.31400878278572264
189	0x3fcc1f57372fdb1f	0.21970644182848617
190	0xbfd1770f988f2eb3	-0.27289190195436247
191	0x3fc445540f8fcca0	0.158365733717436
192	0xbfd3116b34c559ea	-0.29793815759094733
193	0xbfb6010af64c6143	-0.08595341218131573
194	0x3fd3b7f91bf2c784	0.30810382584888196
195	0xbfc53ba29c653bf1	-0.16588242184158689
196	0x3fc60b679669c8b8	0.1722230419578119
197	0xbfe6462c77b65885	-0.6960661256914739
198	0xbfb765acc6af0814	-0.09139518595387158
199	0xbfd5a42cf4e622cd	-0.33814548412241835
200	0x3fd41443b0662f2b	0.3137368414543171
201	0x3f3f7853c7f8ddd0	0.00048019452512756706
202	0xbfa50a7573daef97	-0.04109541930435439
203	0xbfe370c99533c4c6	-0.6075179971795925
204	0x3fd32b5a9490bffa	0.2995211077532073
205	0x3fd090c964b4bd60	0.25883707842418424
206	0xbfb1f66656c65c9a	-0.07016601198698638
207	0x3ff03ca2f244caf5	1.014803835260577
208	0xbfe8684b5eebdddb	-0.7627312520916648
209	0xbf8b84eaf9473225	-0.013437114460338748
210	0xbfd31021c4014253	-0.2978596128569155
211	0xbfe396463dd6efda	-0.6120940406613002
212	0xbfd7792a040373d3	-0.36677027122442246
213	0x3fdd2dd2fa344789	0.45592188295369646
214	0x3fb057ea5ffeba53	0.0638414844858997
215	0xbfbb80aa0579c295	-0.10743200906450519
216	0xbfbf28b85569b33b	-0.12171508870387708
217	0x3f92c9c43de0d40b	0.01834780337977197
218	0xbfd35442dfdfdd29	-0.302017897250567
219	0x3fd568557e8420e9	0.3344930396565489
220	0x3fb483e92f721849	0.08013780029622909
221	0xbfc4e40dad024362	-0.16320963809678363
222	0x3fe4aacec17ca4aa	0.6458505419770024
223	0x3f9c5011cda09cba	0.027649191070079772
224	0x3fcaa7660818a3b6	0.20823359866451846
225	0xbfcec86992051ab9	-0.2404911005962356
226	0xbfc6a62e2c89f4fc	-0.17694642233610824
227	0xbfd4135fd23e009d	-0.3136825135370687
228	0x3f85d032e8572a0f	0.010651014056652945
229	0xbfdba66cde5c20c9	-0.4320327922328145
230	0x3fc5f269de1f136f	0.17146037431498537
231	0xbfb9aefb6ecc7248	-0.10032626586002735
232	0xbfc02a0df9656660	-0.12628340413612005
233	0xbfc046797e142579	-0.1271507135027539
234	0xbfef8a993d5fa3b3	-0.9856687735274278
235	0x3fe45190f336fed5	0.634956812886197
236	0xbfbf43f024829146	-0.12213040248258719
237	0x3fc43e15db17ba78	0.15814469526181418
238	0x3fd0bd7b9dbdd34f	0.2615651169247046
239	0x3fd0dc034ed420d5	0.2634285230456162
240	0xbfdba614ae61b140	-0.43201176671461283
241	0xbfc0ea79392500ff	-0.1321555642152887
242	0x3fc55ef525a399e7	0.1669603761467464
243	0x3f7969d420540433	0.006204441660202997
244	0xbfd303833d711e37	-0.29708939552481034
245	0x3fc9093021695550	0.195592895807446
246	0xbfe1a8d6cfcd99a6	-0.5518602427153396
247	0xbfb2b08f8bd5d330	-0.07300660289713501
248	0xbf973b0c22f3791d	-0.022686185487026046
249	0x3fb8cf00eb0c14b2	0.09690862406212622
250	0xbfdaa253da927c44	-0.4161576876157975
251	0x3fb3e3df44455e98	0.07769580284854738
252	0xbf790339e9a15fc9	-0.006106592389265538
253	0xbfa8ebd785087f2c	-0.04867433070125879
254	0xbff34d230da128b5	-1.2063322575000204
255	0xbfd2243723593253	-0.28346041156763596
